…
            "cmd": "tail -80 training_output.txt",
            "workdir": "/app/caffe",
            "yield_time_ms": 1000,
            "max_output_tokens": 5000
          }
        }
      ],
      "observation": {
        "results": [
          {
            "source_call_id": "call_XLkBMyNdsk184w2jpQcpXEJL",
            "content": "Chunk ID: 46292e\nWall time: 0.0000 seconds\nProcess exited with code 0\nOriginal token count: 1530\nOutput:\nI20260629 22:15:20.065280 11553 net.cpp:380] pool3 -> pool3\nI20260629 22:15:20.065284 11553 net.cpp:122] Setting up pool3\nI20260629 22:15:20.065286 11553 net.cpp:129] Top shape: 100 64 4 4 (102400)\nI20260629 22:15:20.065289 11553 net.cpp:137] Memory required for data: 31950000\nI20260629 22:15:20.065291 11553 layer_factory.hpp:77] Creating layer ip1\nI20260629 22:15:20.065294 11553 net.cpp:84] Creating Layer ip1\nI20260629 22:15:20.065296 11553 net.cpp:406] ip1 <- pool3\nI20260629 22:15:20.065299 11553 net.cpp:380] ip1 -> ip1\nI20260629 22:15:20.065653 11553 net.cpp:122] Setting up ip1\nI20260629 22:15:20.065675 11553 net.cpp:129] Top shape: 100 64 (6400)\nI20260629 22:15:20.065678 11553 net.cpp:137] Memory required for data: 31975600\nI20260629 22:15:20.065682 11553 layer_factory.hpp:77] Creating layer ip2\nI20260629 22:15:20.065687 11553 net.cpp:84] Creating Layer ip2\nI20260629 22:15:20.065690 11553 net.cpp:406] ip2 <- ip1\nI20260629 22:15:20.065693 11553 net.cpp:380] ip2 -> ip2\nI20260629 22:15:20.065701 11553 net.cpp:122] Setting up ip2\nI20260629 22:15:20.065704 11553 net.cpp:129] Top shape: 100 10 (1000)\nI20260629 22:15:20.065716 11553 net.cpp:137] Memory required for data: 31979600\nI20260629 22:15:20.065722 11553 layer_factory.hpp:77] Creating layer ip2_ip2_0_split\nI20260629 22:15:20.065737 11553 net.cpp:84] Creating Layer ip2_ip2_0_split\nI20260629 22:15:20.065747 11553 net.cpp:406] ip2_ip2_0_split <- ip2\nI20260629 22:15:20.065752 11553 net.cpp:380] ip2_ip2_0_split -> ip2_ip2_0_split_0\nI20260629 22:15:20.065754 11553 net.cpp:380] ip2_ip2_0_split -> ip2_ip2_0_split_1\nI20260629 22:15:20.065757 11553 net.cpp:122] Setting up ip2_ip2_0_split\nI20260629 22:15:20.065760 11553 net.cpp:129] Top shape: 100 10 (1000)\nI20260629 22:15:20.065771 11553 net.cpp:129] Top shape: 100 10 (1000)\nI20260629 22:15:20.065775 11553 net.cpp:137] Memory required for data: 31987600\nI20260629 22:15:20.065778 11553 layer_factory.hpp:77] Creating layer accuracy\nI20260629 22:15:20.065793 11553 net.cpp:84] Creating Layer accuracy\nI20260629 22:15:20.065800 11553 net.cpp:406] accuracy <- ip2_ip2_0_split_0\nI20260629 22:15:20.065804 11553 net.cpp:406] accuracy <- label_cifar_1_split_0\nI
…
