…
er cifar\nI20260626 18:58:29.308738 14957 db_lmdb.cpp:35] Opened lmdb examples/cifar10/cifar10_train_lmdb\nI20260626 18:58:29.308759 14957 net.cpp:84] Creating Layer cifar\nI20260626 18:58:29.308763 14957 net.cpp:380] cifar -> data\nI20260626 18:58:29.308786 14957 net.cpp:380] cifar -> label\nI20260626 18:58:29.308794 14957 data_transformer.cpp:25] Loading mean file from: examples/cifar10/mean.binaryproto\nI20260626 18:58:29.308853 14957 data_layer.cpp:45] output data size: 100,3,32,32\nI20260626 18:58:29.308985 14957 net.cpp:122] Setting up cifar\nI20260626 18:58:29.308990 14957 net.cpp:129] Top shape: 100 3 32 32 (307200)\nI20260626 18:58:29.308993 14957 net.cpp:129] Top shape: 100 (100)\nI20260626 18:58:29.308996 14957 net.cpp:137] Memory required for data: 1229200\nI20260626 18:58:29.308998 14957 layer_factory.hpp:77] Creating layer label_cifar_1_split\nI20260626 18:58:29.309002 14957 net.cpp:84] Creating Layer label_cifar_1_split\nI20260626 18:58:29.309005 14957 net.cpp:406] label_cifar_1_split <- label\nI20260626 18:58:29.309010 14957 net.cpp:380] label_cifar_1_split -> label_cifar_1_split_0\nI20260626 18:58:29.309013 14957 net.cpp:380] label_cifar_1_split -> label_cifar_1_split_1\nI20260626 18:58:29.309017 14957 net.cpp:122] Setting up label_cifar_1_split\nI20260626 18:58:29.309019 14957 net.cpp:129] Top shape: 100 (100)\nI20260626 18:58:29.309021 14957 net.cpp:129] Top shape: 100 (100)\nI20260626 18:58:29.309023 14957 net.cpp:137] Memory required for data: 1230000\nI20260626 18:58:29.309026 14957 layer_factory.hpp:77] Creating layer conv1\nI20260626 18:58:29.309031 14957 net.cpp:84] Creating Layer conv1\nI20260626 18:58:29.309033 14957 net.cpp:406] conv1 <- data\nI20260626 18:58:29.309036 14957 net.cpp:380] conv1 -> conv1\nI20260626 18:58:29.309167 14957 net.cpp:122] Setting up conv1\nI20260626 18:58:29.309175 14957 net.cpp:129] Top shape: 100 32 32 32 (3276800)\nI20260626 18:58:29.309177 14957 net.cpp:137] Memory required for data: 14337200\nI20260626 18:58:29.309185 14957 layer_factory.hpp:77] Creating layer pool1\nI20260626 18:58:29.309187 14957 net.cpp:84] Creating Layer pool1\nI20260626 18:58:29.309191 14957 net.cpp:406] pool1 <- conv1\nI20260626 18:58:29.309195 14957 net.cpp:380] pool1 -> pool1\nI20260626 18:58:29.309217 14957 net.cpp:122] Setting up pool1\nI20260626 18:58:29.309221 14957 net.cpp:129] Top shape: 100 32 16 16 (819200)\nI20260626 18:58:29.309224 14957 net.cpp:137] Memory required for data: 17614000\nI20260626 18:58:29.309226 14957 layer_factory.hpp:77] Creating layer relu1\nI20260626 18:58:29.309230 14957 net.cpp:84] Creating Layer relu1\nI20260626 18:58:29.309232 14957 net.cpp:406] relu1 <- pool1\nI20260626 18:58:29.309235 14957 net.cpp:367] relu1 -> pool1 (in-place)\nI20260626 18:58:29.309242 14957 net.cpp:122] Setting up relu1\nI20260626 18:58:29.309244 14957 net.cpp:129] Top shape: 100 32 16 16 (819200)\nI20260626 18:58:29.309247 14957 net.cpp:137] Memory required for data: 20890800\nI20260626 18:58:29.309248 14957 layer_factory.hpp:77] Creating layer conv2\nI20260626 18:58:29.309255 14957 net.cpp:84] Creating Layer conv2\nI20260626 18:58:29.309258 14957 net.cpp:406] conv2 <- pool1\nI20260626 18:58:29.309260 14957 net.cpp:380] conv2 -> conv2\nI20260626 18:58:29.309396 14957 net.cpp:122] Setting up conv2\nI20260626 18:58:29.309399 14957 net.cpp:129] Top shape: 100 32 16 16 (819200)\nI20260626 18:58:29.309403 14957 net.cpp:137] Memory required for data: 24167600\nI20260626 18:58:29.309417 14957 layer_factory.hpp:77] Creating layer relu2\nI20260626 18:58:29.309420 14957 net.cpp:84] Creating Layer relu2\nI20260626 18:58:29.309423 14957 net.cpp:406] relu2 <- conv2\nI20260626 18:58:29.309425 14957 net.cpp:367] relu2 -> conv2 (in-place)\nI20260626 18:58:29.309428 14957 net.cpp:122] Setting up relu2\nI20260626 18:58:29.309430 14957 net.cpp:129] Top shape: 100 32 16 16 (819200)\nI20260626 18:58:29.309433 14957 net.cpp:137] Memory required for data: 27444400\nI20260626 18:58:29.309434 14957 layer_factory.hpp:77] Creating layer pool2\nI20260626 18:58:29.309438 14957 net.cpp:84] Creating Layer pool2\nI20260626 18:58:29.309440 14957 net.cpp:406] pool2 <- conv2\nI20260626 18:58:29.309442 14957 net.cpp:380] pool2 -> pool2\nI20260626 18:58:29.309445 14957 net.cpp:122] Setting up pool2\nI20260626 18:58:29.309448 14957 net.cpp:129] Top shape: 100 32 8 8 (204800)\nI20260626 18:58:29.309449 14957 net.cpp:137] Memory required for data: 28263600\nI20260626 18:58:29.309451 14957 layer_factory.hpp:77] Creating layer conv3\nI20260626 18:58:29.309459 14957 net.cpp:84] Creating Layer conv3\nI20260626 18:58:29.309463 14957 net.cpp:406] conv3 <- pool2\nI20260626 18:58:29.309466 14957 net.cpp:380] conv3 -> conv3\nI20260626 18:58:29.309684 14957 net.cpp:122] Setting up conv3\nI20260626 18:58:29.309691 14957 net.cpp:129] Top shape: 100 64 8 8 (409600)\nI20260626 18:58:29.309703 14957 net.cpp:137] Memory required for data: 29902000\nI20260626 18:58:29.309708 14957 layer_factory.hpp:77] Creating layer relu3\nI20260626 18:58:29.309711 14957 net.cpp:84] Creating Layer relu3\nI20260626 18:58:29.309715 14957 net.cpp:406] relu3 <- conv3\nI20260626 18:58:29.309716 14957 net.cpp:367] relu3 -> conv3 (in-place)\nI20260626 18:58:29.309719 14957 net.cpp:122] Setting up relu3\nI20260626 18:58:29.309721 14957 net.cpp:129] Top shape: 100 64 8 8 (409600)\nI20260626 18:58:29.309723 14957 net.cpp:137] Memory required for data: 31540400\nI20260626 18:58:29.309725 14957 layer_factory.hpp:77] Creating layer pool3\nI20260626 18:58:29.309728 14957 net.cpp:84] Creating Layer pool3\nI20260626 18:58:29.309731 14957 net.cpp:406] pool3 <- conv3\nI20260626 18:58:29.309732 14957 net.cpp:380] pool3 -> pool3\nI20260626 18:58:29.309736 14957 net.cpp:122] Setting up pool3\nI20260626 18:58:29.309746 14957 net.cpp:129] Top shape: 100 64 4 4 (102400)\nI20260626 18:58:29.309751 14957 net.cpp:137] Memory required for data: 31950000\nI20260626 18:58:29.309754 14957 layer_factory.hpp:77] Creating layer ip1\nI20260626 18:58:29.309760 14957 net.cpp:84] Creating Layer ip1\nI20260626 18:58:29.309763 14957 net.cpp:406] ip1 <- pool3\nI20260626 18:58:29.309767 14957 net.cpp:380] ip1 -> ip1\nI20260626 18:58:29.310016 14957 net.cpp:122] Setting up ip1\nI20260626 18:58:29.310030 14957 net.cpp:129] Top shape: 100 64 (6400)\nI20260626 18:58:29.310034 14957 net.cpp:137] Memory required for data: 31975600\nI20260626 18:58:29.310037 14957 layer_factory.hpp:77] Creating layer ip2\nI20260626 18:58:29.310042 14957 net.cpp:84] Creating Layer ip2\nI20260626 18:58:29.310045 14957 net.cpp:406] ip2 <- ip1\nI20260626 18:58:29.310047 14957 net.cpp:380] ip2 -> ip2\nI20260626 18:58:29.310055 14957 net.cpp:122] Setting up ip2\nI20260626 18:58:29.310057 14957 net.cpp:129] Top shape: 100 10 (1000)\nI20260626 18:58:29.310060 14957 net.cpp:137] Memory required for data: 31979600\nI20260626 18:58:29.310061 14957 layer_factory.hpp:77] Creating layer ip2_ip2_0_split\nI20260626 18:58:29.310065 14957 net.cpp:84] Creating Layer ip2_ip2_0_split\nI20260626 18:58:29.310066 14957 net.cpp:406] ip2_ip2_0_split <- ip2\nI20260626 18:58:29.310070 14957 net.cpp:380] ip2_ip2_0_split -> ip2_ip2_0_split_0\nI20260626 18:58:29.310073 14957 net.cpp:380] ip2_ip2_0_split -> ip2_ip2_0_split_1\nI20260626 18:58:29.310086 14957 net.cpp:122] Setting up ip2_ip2_0_split\nI20260626 18:58:29.310091 14957 net.cpp:129] Top shape: 100 10 (1000)\nI20260626 18:58:29.310101 14957 net.cpp:129] Top shape: 100 10 (1000)\nI20260626 18:58:29.310104 14957 net.cpp:137] Memory required for data: 31987600\nI20260626 18:58:29.310106 14957 layer_factory.hpp:77] Creating layer accuracy_train\nI20260626 18:58:29.310110 14957 net.cpp:84] Creating Layer accuracy_train\nI20260626 18:58:29.310112 14957 net.cpp:406] accuracy_train <- ip2_ip2_0_split_0\nI20260626 18:58:29.310114 14957 net.cpp:406] accuracy_train <- 
…
